data.pth (torch, 4895 bytes, 6 tensors)

l1.weight f4 [8, 43]
000000 d7 15 d1 3e 5c 11 5f be 7a 7e 2b 3f fa f0 81 3e
       0.40836975 -0.21783966 0.6698986 0.25379163
000010 b9 e4 0d 3f 7e 15 1a be b8 2c fb be 60 b1 be bb
       0.5542713 -0.15047261 -0.49057555 -0.0058194846
000020 0c b3 d7 3e 65 ab 31 3f 5c eb ea 3e 77 79 d9 3e
       0.4212879 0.6940215 0.4588269 0.42475483
000030 b9 03 18 3f 87 4a 2e be 49 f5 96 3e c1 36 fb be
       0.5938068 -0.17020617 0.29484013 -0.4906521
000040 bf b9 f4 3e 60 03 03 3f 40 0d 33 bc c4 7a 9a 3e
       0.47797963 0.51177025 -0.010928452 0.30171788
000050 27 89 0d be 75 82 c6 3e 24 37 53 3d 65 b0 53 3e
       -0.1382185 0.38771406 0.051566258 0.20672758
000060 ae 57 74 bd 83 f7 c6 be 3c 68 19 3f 27 89 ad bd
       -0.05965393 -0.3886071 0.59924674 -0.08473425
000070 5c 36 18 3f 0f 2f d3 be 5d 15 c9 be fd a4 39 bf
       0.59457946 -0.4124684 -0.3927411 -0.7251738
000080 b6 2f e0 bd be 41 17 3f c7 af 04 be 03 22 7c 3f
       -0.109466 0.5908469 -0.12957679 0.984894
000090 6e 03 0e 3f 33 db ab 3e 3d cc 6a 3f d4 f1 1e bf
       0.55473983 0.33565673 0.9171789 -0.6208775
0000a0 a5 df e4 be d3 e2 94 3e 3e 02 2b be 00 ca 80 be
       -0.44701877 0.29079303 -0.16700074 -0.25154114
0000b0 8f 03 47 be a3 ca f8 3e f5 d4 16 3f 52 fe 00 3f
       -0.19434951 0.485921 0.58918697 0.5038806
0000c0 e7 66 96 be 86 8a 6c 3f e8 11 8b be 5a 95 b5 3e
       -0.29375383 0.9239887 -0.271621 0.3546551
0000d0 f4 98 26 3e 29 49 10 3e 08 61 1c 3f 47 d0 93 be
       0.16269284 0.14090408 0.6108556 -0.2886984
0000e0 05 a2 e8 bd 70 f3 0e 3f 2a c1 6d 3f 65 4c 56 3f
       -0.11359028 0.55840206 0.9287287 0.8371032
0000f0 3c 0c 80 be cd 62 15 be 7f 8d 41 3f 75 f7 07 3f
       -0.25009334 -0.14588471 0.7560653 0.53111964
000100 0f 58 43 3f b5 a4 a7 be 75 5e 36 3f 3b 0d 4c be
       0.7630624 -0.3274285 0.7123788 -0.19926922
000110 07 a2 16 3f 56 54 a5 3e 73 cc 16 be b9 ac cb bd
       0.58840984 0.32290906 -0.14726429 -0.099450536
000120 c1 38 bb 3e d7 b1 47 3f 24 7d 28 bf cf 68 8f be
       0.36566737 0.7800574 -0.6581595 -0.2800965
000130 30 a0 d2 3e c8 e0 de be 1f 8f 46 bf e4 57 4b be
       0.41137838 -0.4353087 -0.77562135 -0.19857746
000140 53 71 10 3f 24 de 39 bf 98 13 80 3d ca 0b d0 3e
       0.5642292 -0.72604585 0.06253737 0.40633994
000150 aa 35 65 3e 7e 7f 00 3e c0 77 6e 3e a6 83 f5 3c
       0.22383752 0.12548634 0.23287868 0.029970001
000160 1b bf 27 be d4 1d 0b 3f 8f dd 28 3f be 29 af 3c
       -0.16381495 0.5434239 0.6596307 0.021382209
000170 45 51 b0 be 94 22 ac 3c 8d cf 55 be 7c 70 b3 be
       -0.34437004 0.021012582 -0.20879956 -0.35046756
000180 5a 2d b5 bd 02 4b 00 3f 2b 89 41 bd 03 a3 bb 3d
       -0.08846541 0.5011445 -0.047249954 0.091619514
000190 f2 44 15 3f 1b cb af be f3 23 2e 3f fe cf 39 3e
       0.5830833 -0.34334645 0.68023604 0.18145749
0001a0 7e b1 df ba d9 a5 2f 3f 47 46 17 3f c3 ef 1a 3f
       -0.0017066447 0.6861244 0.5909161 0.605221
0001b0 f5 60 5d 3d 79 82 ea 3e 58 e3 f5 bc 81 ad 46 be
       0.054047544 0.45802668 -0.030015633 -0.19402124
0001c0 d7 30 30 be d3 7e a6 bd cd a4 d4 be 7a cd e4 3e
       -0.17206131 -0.081296586 -0.41531983 0.44688016
0001d0 68 d9 98 be 08 13 16 be 1b 0a 65 bd 4a f3 84 3c
       -0.29853368 -0.14655697 -0.05591784 0.01622929
0001e0 74 68 f6 bd cb 00 ad 3e 12 36 2d 3e 1b 92 b4 3e
       -0.120316416 0.33789667 0.16915157 0.3526772
0001f0 da fe d5 bd a5 fa f0 3e a8 7d 10 3f 57 8e 89 3e
       -0.10449 0.47066227 0.56441736 0.2686641
000200 00 bb 91 3e 84 88 fb 3e 08 93 b1 3e 60 e0 7d be
       0.28462982 0.4912759 0.34682488 -0.24792624
000210 b3 dc 9a 3e ee 00 a3 bd 7a 71 b6 3d e8 2d b8 be
       0.30246505 -0.07959162 0.08908363 -0.35972524
000220 7f fb 1d bc 90 6a 9a be b0 b4 b1 be d9 5c 71 bd
       -0.009642481 -0.30159426 -0.34708166 -0.058926437
000230 75 da a6 3e c5 53 fe bd ac 02 e3 3e db 15 04 3f
       0.32588544 -0.124183215 0.44337976 0.5159585
000240 14 e8 b6 be b5 24 1e 3f e3 a5 35 3f 05 b1 11 3e
       -0.35723937 0.6177476 0.7095625 0.14227684
000250 e2 b5 27 3f 55 de 97 bd ab 44 0d 3f d3 fd 26 3e
       0.65511906 -0.07415453 0.55182904 0.16307764
000260 e7 11 bf 3e c8 36 34 3e ce bf 42 be e7 23 ba be
       0.37318346 0.17599022 -0.1901848 -0.36355516
000270 b1 04 e1 3e 90 01 0e be b6 34 f7 be b8 1a 44 be
       0.43948892 -0.13867784 -0.48282403 -0.19150817
000280 95 70 30 3e 28 49 ac 3e a3 c2 4c be 0c 6c 95 3e
       0.17230447 0.33649564 -0.19996123 0.29183996
000290 52 87 80 3f 5b 22 22 3f ee 28 56 3e 69 d8 27 bf
       1.0041296 0.6333367 0.20914051 -0.6556459
0002a0 a5 60 43 3d e3 18 c0 be e4 dc 99 3e 82 a0 ed bd
       0.04769959 -0.37518987 0.3005134 -0.1160288
0002b0 23 d3 0e 3f bc 16 2f bc 99 9d 65 be bf e5 c7 bd
       0.5579092 -0.010686573 -0.224234 -0.097606175
0002c0 d0 11 30 be ef 3f 94 3e fc 65 af be 50 5e 10 3f
       -0.17194295 0.28955027 -0.34257495 0.5639391
0002d0 ca 79 99 be eb 18 88 3e 65 14 cf bd 80 67 4f be
       -0.2997573 0.2658151 -0.10111312 -0.20254326
0002e0 36 59 45 3f 4f f7 82 bd 06 56 0f be bb 5e af be
       0.7708925 -0.063948266 -0.13997659 -0.3425196
0002f0 03 5d af be 99 83 af 3e 41 65 9a 3e 0d 5f af be
       -0.3425065 0.3428009 0.30155376 -0.34252205
000300 0f cb 25 be a9 c5 12 bf 62 2d f0 3e 7d cd 14 be
       -0.16190742 -0.57332855 0.46909624 -0.14531513
000310 6e a2 1f bd d8 28 c0 be 12 26 af be e0 4c 22 3e
       -0.038973264 -0.3753116 -0.34208733 0.15849638
000320 c0 fe 97 3e f3 af 2d be f9 5b cb be 74 1c 1d 3f
       0.29686546 -0.1696165 -0.39718607 0.6137154
000330 9d 6b e1 bd 35 19 92 bd 6b 4a ed 3d 8d 2b 50 3f
       -0.11006854 -0.07133714 0.1158646 0.81316453
000340 fc 72 f4 3e 47 d1 6d bd 15 cd 9d 3f 8c 21 a1 3e
       0.47743976 -0.05806091 1.2328211 0.31470907
000350 e9 dc 23 be 22 2e dc 3e 72 b9 be 3e 06 6e 4d bd
       -0.1600224 0.43003947 0.3725086 -0.050153755
000360 a4 46 69 bd 0a 86 9e be 42 41 86 bd 44 b9 00 3f
       -0.056952134 -0.3096164 -0.06555416 0.5028269
000370 0a fa 08 3f b5 4b d4 be 9e 38 f3 3e b5 a7 d5 be
       0.5350653 -0.4146401 0.47504133 -0.41729513
000380 25 4b 2f be a3 e4 9a be 69 e1 47 3e 6d b7 16 3f
       -0.17118509 -0.3025256 0.19519581 0.58873636
000390 6e 7c be bd 95 b2 69 3e 1c 3d d4 be cf 42 8d 3e
       -0.09301077 0.2282203 -0.41452873 0.27590033
0003a0 57 2c 2b be d9 fe f0 3e f7 69 11 3e 5c 47 7f 3e
       -0.16716133 0.47069433 0.14200579 0.24929565
0003b0 53 33 ce be 48 5a de 3e ac c4 3f 3e 39 e3 c8 bd
       -0.40273532 0.43428254 0.18727368 -0.09808964
0003c0 4e 64 a2 be 8c 23 e0 be 24 19 2f be 24 88 d2 be
       -0.3171715 -0.4377712 -0.17099434 -0.41119492
0003d0 d1 71 fe 3e be f7 a8 be ef ed 26 3f e7 9a 7d bd
       0.4969621 -0.33001512 0.6520681 -0.061915305
0003e0 e8 16 12 be fc 6c b5 bd 2a d6 f3 be 1c e4 9d bc
       -0.1426655 -0.08858678 -0.47624332 -0.01927381
0003f0 76 f0 20 3e 1b 4a 5a 3f ee ac c5 3e b3 e1 7a 3e
       0.15716729 0.85269326 0.38608497 0.2450016

l1.bias f4 [8]
000000 18 30 fb 3e 1f e4 79 3f 55 86 64 3f 21 a4 60 3f
       0.4906013 0.9761371 0.89267474 0.8775044
000010 f5 5a af 3e 2f 2c d4 3e 47 0c a5 3e a6 a4 17 3f
       0.34249082 0.4143996 0.3223593 0.5923561

l2.weight f4 [8, 8]
000000 10 e7 a0 bf 65 aa 18 3f f7 e9 2b 3f 0e b0 f7 3e
       -1.2570515 0.59635 0.6715388 0.48376507
000010 af 29 75 bf 0d 3e 49 be 82 6c 75 be dd 11 75 3f
       -0.9576673 -0.19652577 -0.23967174 0.9573038
000020 8d d7 f9 be c9 f2 3e bf 8d 5e 51 3f bd a3 8b 3e
       -0.48797265 -0.7458921 0.817849 0.2727336
000030 56 6a 95 3f 62 8a 87 3f 20 6f a1 3e c6 ab b2 3e
       1.1673076 1.0589106 0.31530094 0.34896678
000040 8b 40 7e 3e 86 08 90 3f 2e 0e 53 3f 5f fc d2 be
       0.24829309 1.1252601 0.8244351 -0.4120817
000050 87 f3 02 bf 6f 2f 11 3f ca 60 37 bf ca 87 75 3f
       -0.51152843 0.56713 -0.71632063 0.9591032
000060 47 5e a6 3f db ee cb 3e 06 81 26 3f 7c e3 a1 3f
       1.2997521 0.3983067 0.65040624 1.2647548
000070 52 7c 78 be 4b 8d 85 bf 70 50 d2 bc 9e 87 af bd
       -0.24266174 -1.0433744 -0.025673121 -0.08570789
000080 70 72 9d 3f f0 39 1b 3d d0 8f 76 3e 39 da 7c bf
       1.2300549 0.03789705 0.24078298 -0.9877048
000090 9c b5 1e 3f b8 2a 4f 3f bc 85 6d bf 3c 93 d4 3e
       0.61995864 0.8092456 -0.9278219 0.4151858
0000a0 9c 20 1f 3f 85 38 5b 3f 82 40 66 3f 1c 32 f2 3e
       0.6215913 0.85633117 0.8994218 0.47303855
0000b0 34 df 8e bf 85 f9 f2 3b 5e da 2d 3f 4c 60 53 bf
       -1.1161866 0.007414999 0.67911327 -0.8256881
0000c0 06 48 9e 3f 52 78 1b be 3e d8 8c 3f 6e 9d 4e 3f
       1.236573 -0.15182617 1.1003492 0.8070897
0000d0 2d 61 16 3f 73 96 9b 3f b8 a4 93 3f 84 3c f7 be
       0.5874203 1.2155288 1.1534643 -0.48288357
0000e0 3b 59 0b bf d1 ae 73 3f 29 98 29 3f 67 01 59 3b
       -0.5443303 0.95188624 0.662478 0.0033112408
0000f0 1b 75 9b bf 9c 16 31 3d b1 b1 63 3e 3d 15 c6 3e
       -1.2145113 0.043234453 0.22235753 0.3868808

l2.bias f4 [8]
000000 34 b5 99 3f 61 68 bf 3e be e2 82 bd 5a b7 89 3f
       1.2008424 0.37384322 -0.06390904 1.075908
000010 7c 45 6e be f1 74 93 bd 8e 26 d6 bd 2a b9 99 bd
       -0.23268694 -0.07200039 -0.104565725 -0.0750602

l3.weight f4 [8, 8]
000000 96 89 4e 3f aa 78 e6 3e fd fe 64 bf c5 e6 51 3f
       0.8067869 0.45013934 -0.8945158 0.8199275
000010 b5 60 1c bf a4 82 ba bf 13 d0 ee be 43 fa 90 bf
       -0.61085063 -1.4571118 -0.46643123 -1.1326374
000020 bc 05 24 3f a1 a3 9e bf 1b 84 1a 3f 6f ad 31 bd
       0.6407125 -1.2393686 0.60357827 -0.04337829
000030 05 1a d5 bf 57 14 a4 be 22 61 9e bf d1 1d 37 3f
       -1.6648566 -0.32046768 -1.2373393 0.7152987
000040 65 0a dc be 38 b0 89 bf eb 67 17 3d 9b 7e 06 3e
       -0.4297668 -1.0756903 0.03696434 0.13134234
000050 f1 d2 a7 bf 2c df 2d 3f 6f 66 be 3e 37 15 29 3e
       -1.3111249 0.6791866 0.37187526 0.16511999
000060 39 02 47 3e ac 84 3b 3c b0 f1 c0 3e 8b 5f 5d bf
       0.19434442 0.011445206 0.37684393 -0.8647391
000070 54 4f a8 be a3 3a 86 be ec 31 4f be bb 2d 29 3f
       -0.32873023 -0.2621661 -0.20233887 0.66085404
000080 e2 89 52 bf e2 50 34 3f bd 6c 5b bf 83 82 54 bf
       -0.8224164 0.7043592 -0.85712796 -0.83011645
000090 d9 4e 57 bf 09 c7 5f bf 2d 65 42 3f 8c df b9 be
       -0.84104687 -0.8741308 0.7593563 -0.36303365
0000a0 cf ce 03 bf 9d 2f b2 3e 90 06 c7 3e a2 89 8a bf
       -0.5148744 0.3480195 0.38872194 -1.0823252
0000b0 f1 7b fb 3e 79 fa 8e bf c0 63 f1 3d 6b de 12 bf
       0.49117997 -1.1170188 0.11786604 -0.5737063
0000c0 84 e5 91 bf 8f f1 a7 bf cc 8e 22 3e fd a6 d7 3e
       -1.1398168 -1.3120593 0.15874785 0.4211959
0000d0 f4 9c d4 3e cd 4c ae 3d 68 5a 5a 3e 1a f1 cd bf
       0.41525996 0.08510742 0.2132355 -1.6089203
0000e0 5a f2 87 bf 69 c0 e2 bd 1f fb bf bf 7a d9 47 3f
       -1.0620835 -0.110718556 -1.4998511 0.7806622
0000f0 6a c5 90 bf b0 dc 82 bd a3 62 12 3f ce 6a d3 bf
       -1.1310246 -0.06389749 0.5718176 -1.6516969

l3.bias f4 [8]
000000 dc e3 88 3e 6c c2 fd 3e 21 40 bf be e1 f2 05 bf
       0.26736343 0.49562395 -0.37353614 -0.5232373
000010 16 7b 07 be 99 d8 d0 be 7d df e0 bd e6 99 27 bd
       -0.13230547 -0.4079025 -0.10980127 -0.040918253
